nohup: ignoring input
=> creating model 'emcaanet_resnet50'
DataParallel(
  (module): EMCAAResNet(
    (conv1): Conv2d(3, 64, kernel_size=(7, 7), stride=(2, 2), padding=(3, 3), bias=False)
    (bn1): BatchNorm2d(64, eps=1e-05, momentum=0.1, affine=True, track_running_stats=True)
    (relu): ReLU(inplace=True)
    (maxpool): MaxPool2d(kernel_size=3, stride=2, padding=1, dilation=1, ceil_mode=False)
    (layer1): Sequential(
      (0): EMCAABottleneck(
        (conv1): Conv2d(64, 64, kernel_size=(1, 1), stride=(1, 1), bias=False)
        (bn1): BatchNorm2d(64, eps=1e-05, momentum=0.1, affine=True, track_running_stats=True)
        (conv2): Conv2d(64, 64, kernel_size=(3, 3), stride=(1, 1), padding=(1, 1), bias=False)
        (bn2): BatchNorm2d(64, eps=1e-05, momentum=0.1, affine=True, track_running_stats=True)
        (skeca): emcaa_layer(
          (avg_pool1): AdaptiveAvgPool2d(output_size=1)
          (avg_pool2): AdaptiveAvgPool2d(output_size=2)
          (conv): Conv1d(1, 1, kernel_size=(3,), stride=(1,), padding=(1,), bias=False)
          (fc): Sequential(
            (0): Linear(in_features=320, out_features=64, bias=False)
            (1): Sigmoid()
          )
          (sigmoid): Sigmoid()
        )
        (conv3): Conv2d(64, 256, kernel_size=(1, 1), stride=(1, 1), bias=False)
        (bn3): BatchNorm2d(256, eps=1e-05, momentum=0.1, affine=True, track_running_stats=True)
        (relu): ReLU(inplace=True)
        (downsample): Sequential(
          (0): Conv2d(64, 256, kernel_size=(1, 1), stride=(1, 1), bias=False)
          (1): BatchNorm2d(256, eps=1e-05, momentum=0.1, affine=True, track_running_stats=True)
        )
      )
      (1): EMCAABottleneck(
        (conv1): Conv2d(256, 64, kernel_size=(1, 1), stride=(1, 1), bias=False)
        (bn1): BatchNorm2d(64, eps=1e-05, momentum=0.1, affine=True, track_running_stats=True)
        (conv2): Conv2d(64, 64, kernel_size=(3, 3), stride=(1, 1), padding=(1, 1), bias=False)
        (bn2): BatchNorm2d(64, eps=1e-05, momentum=0.1, affine=True, track_running_stats=True)
        (skeca): emcaa_layer(
          (avg_pool1): AdaptiveAvgPool2d(output_size=1)
          (avg_pool2): AdaptiveAvgPool2d(output_size=2)
          (conv): Conv1d(1, 1, kernel_size=(3,), stride=(1,), padding=(1,), bias=False)
          (fc): Sequential(
            (0): Linear(in_features=320, out_features=64, bias=False)
            (1): Sigmoid()
          )
          (sigmoid): Sigmoid()
        )
        (conv3): Conv2d(64, 256, kernel_size=(1, 1), stride=(1, 1), bias=False)
        (bn3): BatchNorm2d(256, eps=1e-05, momentum=0.1, affine=True, track_running_stats=True)
        (relu): ReLU(inplace=True)
      )
      (2): EMCAABottleneck(
        (conv1): Conv2d(256, 64, kernel_size=(1, 1), stride=(1, 1), bias=False)
        (bn1): BatchNorm2d(64, eps=1e-05, momentum=0.1, affine=True, track_running_stats=True)
        (conv2): Conv2d(64, 64, kernel_size=(3, 3), stride=(1, 1), padding=(1, 1), bias=False)
        (bn2): BatchNorm2d(64, eps=1e-05, momentum=0.1, affine=True, track_running_stats=True)
        (skeca): emcaa_layer(
          (avg_pool1): AdaptiveAvgPool2d(output_size=1)
          (avg_pool2): AdaptiveAvgPool2d(output_size=2)
          (conv): Conv1d(1, 1, kernel_size=(3,), stride=(1,), padding=(1,), bias=False)
          (fc): Sequential(
            (0): Linear(in_features=320, out_features=64, bias=False)
            (1): Sigmoid()
          )
          (sigmoid): Sigmoid()
        )
        (conv3): Conv2d(64, 256, kernel_size=(1, 1), stride=(1, 1), bias=False)
        (bn3): BatchNorm2d(256, eps=1e-05, momentum=0.1, affine=True, track_running_stats=True)
        (relu): ReLU(inplace=True)
      )
    )
    (layer2): Sequential(
      (0): EMCAABottleneck(
        (conv1): Conv2d(256, 128, kernel_size=(1, 1), stride=(1, 1), bias=False)
        (bn1): BatchNorm2d(128, eps=1e-05, momentum=0.1, affine=True, track_running_stats=True)
        (conv2): Conv2d(128, 128, kernel_size=(3, 3), stride=(2, 2), padding=(1, 1), bias=False)
        (bn2): BatchNorm2d(128, eps=1e-05, momentum=0.1, affine=True, track_running_stats=True)
        (skeca): emcaa_layer(
          (avg_pool1): AdaptiveAvgPool2d(output_size=1)
          (avg_pool2): AdaptiveAvgPool2d(output_size=2)
          (conv): Conv1d(1, 1, kernel_size=(3,), stride=(1,), padding=(1,), bias=False)
          (fc): Sequential(
            (0): Linear(in_features=640, out_features=128, bias=False)
            (1): Sigmoid()
          )
          (sigmoid): Sigmoid()
        )
        (conv3): Conv2d(128, 512, kernel_size=(1, 1), stride=(1, 1), bias=False)
        (bn3): BatchNorm2d(512, eps=1e-05, momentum=0.1, affine=True, track_running_stats=True)
        (relu): ReLU(inplace=True)
        (downsample): Sequential(
          (0): Conv2d(256, 512, kernel_size=(1, 1), stride=(2, 2), bias=False)
          (1): BatchNorm2d(512, eps=1e-05, momentum=0.1, affine=True, track_running_stats=True)
        )
      )
      (1): EMCAABottleneck(
        (conv1): Conv2d(512, 128, kernel_size=(1, 1), stride=(1, 1), bias=False)
        (bn1): BatchNorm2d(128, eps=1e-05, momentum=0.1, affine=True, track_running_stats=True)
        (conv2): Conv2d(128, 128, kernel_size=(3, 3), stride=(1, 1), padding=(1, 1), bias=False)
        (bn2): BatchNorm2d(128, eps=1e-05, momentum=0.1, affine=True, track_running_stats=True)
        (skeca): emcaa_layer(
          (avg_pool1): AdaptiveAvgPool2d(output_size=1)
          (avg_pool2): AdaptiveAvgPool2d(output_size=2)
          (conv): Conv1d(1, 1, kernel_size=(3,), stride=(1,), padding=(1,), bias=False)
          (fc): Sequential(
            (0): Linear(in_features=640, out_features=128, bias=False)
            (1): Sigmoid()
          )
          (sigmoid): Sigmoid()
        )
        (conv3): Conv2d(128, 512, kernel_size=(1, 1), stride=(1, 1), bias=False)
        (bn3): BatchNorm2d(512, eps=1e-05, momentum=0.1, affine=True, track_running_stats=True)
        (relu): ReLU(inplace=True)
      )
      (2): EMCAABottleneck(
        (conv1): Conv2d(512, 128, kernel_size=(1, 1), stride=(1, 1), bias=False)
        (bn1): BatchNorm2d(128, eps=1e-05, momentum=0.1, affine=True, track_running_stats=True)
        (conv2): Conv2d(128, 128, kernel_size=(3, 3), stride=(1, 1), padding=(1, 1), bias=False)
        (bn2): BatchNorm2d(128, eps=1e-05, momentum=0.1, affine=True, track_running_stats=True)
        (skeca): emcaa_layer(
          (avg_pool1): AdaptiveAvgPool2d(output_size=1)
          (avg_pool2): AdaptiveAvgPool2d(output_size=2)
          (conv): Conv1d(1, 1, kernel_size=(3,), stride=(1,), padding=(1,), bias=False)
          (fc): Sequential(
            (0): Linear(in_features=640, out_features=128, bias=False)
            (1): Sigmoid()
          )
          (sigmoid): Sigmoid()
        )
        (conv3): Conv2d(128, 512, kernel_size=(1, 1), stride=(1, 1), bias=False)
        (bn3): BatchNorm2d(512, eps=1e-05, momentum=0.1, affine=True, track_running_stats=True)
        (relu): ReLU(inplace=True)
      )
      (3): EMCAABottleneck(
        (conv1): Conv2d(512, 128, kernel_size=(1, 1), stride=(1, 1), bias=False)
        (bn1): BatchNorm2d(128, eps=1e-05, momentum=0.1, affine=True, track_running_stats=True)
        (conv2): Conv2d(128, 128, kernel_size=(3, 3), stride=(1, 1), padding=(1, 1), bias=False)
        (bn2): BatchNorm2d(128, eps=1e-05, momentum=0.1, affine=True, track_running_stats=True)
        (skeca): emcaa_layer(
          (avg_pool1): AdaptiveAvgPool2d(output_size=1)
          (avg_pool2): AdaptiveAvgPool2d(output_size=2)
          (conv): Conv1d(1, 1, kernel_size=(3,), stride=(1,), padding=(1,), bias=False)
          (fc): Sequential(
            (0): Linear(in_features=640, out_features=128, bias=False)
            (1): Sigmoid()
          )
          (sigmoid): Sigmoid()
        )
        (conv3): Conv2d(128, 512, kernel_size=(1, 1), stride=(1, 1), bias=False)
        (bn3): BatchNorm2d(512, eps=1e-05, momentum=0.1, affine=True, track_running_stats=True)
        (relu): ReLU(inplace=True)
      )
    )
    (layer3): Sequential(
      (0): EMCAABottleneck(
        (conv1): Conv2d(512, 256, kernel_size=(1, 1), stride=(1, 1), bias=False)
        (bn1): BatchNorm2d(256, eps=1e-05, momentum=0.1, affine=True, track_running_stats=True)
        (conv2): Conv2d(256, 256, kernel_size=(3, 3), stride=(2, 2), padding=(1, 1), bias=False)
        (bn2): BatchNorm2d(256, eps=1e-05, momentum=0.1, affine=True, track_running_stats=True)
        (skeca): emcaa_layer(
          (avg_pool1): AdaptiveAvgPool2d(output_size=1)
          (avg_pool2): AdaptiveAvgPool2d(output_size=2)
          (conv): Conv1d(1, 1, kernel_size=(7,), stride=(1,), padding=(3,), bias=False)
          (fc): Sequential(
            (0): Linear(in_features=1280, out_features=256, bias=False)
            (1): Sigmoid()
          )
          (sigmoid): Sigmoid()
        )
        (conv3): Conv2d(256, 1024, kernel_size=(1, 1), stride=(1, 1), bias=False)
        (bn3): BatchNorm2d(1024, eps=1e-05, momentum=0.1, affine=True, track_running_stats=True)
        (relu): ReLU(inplace=True)
        (downsample): Sequential(
          (0): Conv2d(512, 1024, kernel_size=(1, 1), stride=(2, 2), bias=False)
          (1): BatchNorm2d(1024, eps=1e-05, momentum=0.1, affine=True, track_running_stats=True)
        )
      )
      (1): EMCAABottleneck(
        (conv1): Conv2d(1024, 256, kernel_size=(1, 1), stride=(1, 1), bias=False)
        (bn1): BatchNorm2d(256, eps=1e-05, momentum=0.1, affine=True, track_running_stats=True)
        (conv2): Conv2d(256, 256, kernel_size=(3, 3), stride=(1, 1), padding=(1, 1), bias=False)
        (bn2): BatchNorm2d(256, eps=1e-05, momentum=0.1, affine=True, track_running_stats=True)
        (skeca): emcaa_layer(
          (avg_pool1): AdaptiveAvgPool2d(output_size=1)
          (avg_pool2): AdaptiveAvgPool2d(output_size=2)
          (conv): Conv1d(1, 1, kernel_size=(7,), stride=(1,), padding=(3,), bias=False)
          (fc): Sequential(
            (0): Linear(in_features=1280, out_features=256, bias=False)
            (1): Sigmoid()
          )
          (sigmoid): Sigmoid()
        )
        (conv3): Conv2d(256, 1024, kernel_size=(1, 1), stride=(1, 1), bias=False)
        (bn3): BatchNorm2d(1024, eps=1e-05, momentum=0.1, affine=True, track_running_stats=True)
        (relu): ReLU(inplace=True)
      )
      (2): EMCAABottleneck(
        (conv1): Conv2d(1024, 256, kernel_size=(1, 1), stride=(1, 1), bias=False)
        (bn1): BatchNorm2d(256, eps=1e-05, momentum=0.1, affine=True, track_running_stats=True)
        (conv2): Conv2d(256, 256, kernel_size=(3, 3), stride=(1, 1), padding=(1, 1), bias=False)
        (bn2): BatchNorm2d(256, eps=1e-05, momentum=0.1, affine=True, track_running_stats=True)
        (skeca): emcaa_layer(
          (avg_pool1): AdaptiveAvgPool2d(output_size=1)
          (avg_pool2): AdaptiveAvgPool2d(output_size=2)
          (conv): Conv1d(1, 1, kernel_size=(7,), stride=(1,), padding=(3,), bias=False)
          (fc): Sequential(
            (0): Linear(in_features=1280, out_features=256, bias=False)
            (1): Sigmoid()
          )
          (sigmoid): Sigmoid()
        )
        (conv3): Conv2d(256, 1024, kernel_size=(1, 1), stride=(1, 1), bias=False)
        (bn3): BatchNorm2d(1024, eps=1e-05, momentum=0.1, affine=True, track_running_stats=True)
        (relu): ReLU(inplace=True)
      )
      (3): EMCAABottleneck(
        (conv1): Conv2d(1024, 256, kernel_size=(1, 1), stride=(1, 1), bias=False)
        (bn1): BatchNorm2d(256, eps=1e-05, momentum=0.1, affine=True, track_running_stats=True)
        (conv2): Conv2d(256, 256, kernel_size=(3, 3), stride=(1, 1), padding=(1, 1), bias=False)
        (bn2): BatchNorm2d(256, eps=1e-05, momentum=0.1, affine=True, track_running_stats=True)
        (skeca): emcaa_layer(
          (avg_pool1): AdaptiveAvgPool2d(output_size=1)
          (avg_pool2): AdaptiveAvgPool2d(output_size=2)
          (conv): Conv1d(1, 1, kernel_size=(7,), stride=(1,), padding=(3,), bias=False)
          (fc): Sequential(
            (0): Linear(in_features=1280, out_features=256, bias=False)
            (1): Sigmoid()
          )
          (sigmoid): Sigmoid()
        )
        (conv3): Conv2d(256, 1024, kernel_size=(1, 1), stride=(1, 1), bias=False)
        (bn3): BatchNorm2d(1024, eps=1e-05, momentum=0.1, affine=True, track_running_stats=True)
        (relu): ReLU(inplace=True)
      )
      (4): EMCAABottleneck(
        (conv1): Conv2d(1024, 256, kernel_size=(1, 1), stride=(1, 1), bias=False)
        (bn1): BatchNorm2d(256, eps=1e-05, momentum=0.1, affine=True, track_running_stats=True)
        (conv2): Conv2d(256, 256, kernel_size=(3, 3), stride=(1, 1), padding=(1, 1), bias=False)
        (bn2): BatchNorm2d(256, eps=1e-05, momentum=0.1, affine=True, track_running_stats=True)
        (skeca): emcaa_layer(
          (avg_pool1): AdaptiveAvgPool2d(output_size=1)
          (avg_pool2): AdaptiveAvgPool2d(output_size=2)
          (conv): Conv1d(1, 1, kernel_size=(7,), stride=(1,), padding=(3,), bias=False)
          (fc): Sequential(
            (0): Linear(in_features=1280, out_features=256, bias=False)
            (1): Sigmoid()
          )
          (sigmoid): Sigmoid()
        )
        (conv3): Conv2d(256, 1024, kernel_size=(1, 1), stride=(1, 1), bias=False)
        (bn3): BatchNorm2d(1024, eps=1e-05, momentum=0.1, affine=True, track_running_stats=True)
        (relu): ReLU(inplace=True)
      )
      (5): EMCAABottleneck(
        (conv1): Conv2d(1024, 256, kernel_size=(1, 1), stride=(1, 1), bias=False)
        (bn1): BatchNorm2d(256, eps=1e-05, momentum=0.1, affine=True, track_running_stats=True)
        (conv2): Conv2d(256, 256, kernel_size=(3, 3), stride=(1, 1), padding=(1, 1), bias=False)
        (bn2): BatchNorm2d(256, eps=1e-05, momentum=0.1, affine=True, track_running_stats=True)
        (skeca): emcaa_layer(
          (avg_pool1): AdaptiveAvgPool2d(output_size=1)
          (avg_pool2): AdaptiveAvgPool2d(output_size=2)
          (conv): Conv1d(1, 1, kernel_size=(7,), stride=(1,), padding=(3,), bias=False)
          (fc): Sequential(
            (0): Linear(in_features=1280, out_features=256, bias=False)
            (1): Sigmoid()
          )
          (sigmoid): Sigmoid()
        )
        (conv3): Conv2d(256, 1024, kernel_size=(1, 1), stride=(1, 1), bias=False)
        (bn3): BatchNorm2d(1024, eps=1e-05, momentum=0.1, affine=True, track_running_stats=True)
        (relu): ReLU(inplace=True)
      )
    )
    (layer4): Sequential(
      (0): EMCAABottleneck(
        (conv1): Conv2d(1024, 512, kernel_size=(1, 1), stride=(1, 1), bias=False)
        (bn1): BatchNorm2d(512, eps=1e-05, momentum=0.1, affine=True, track_running_stats=True)
        (conv2): Conv2d(512, 512, kernel_size=(3, 3), stride=(2, 2), padding=(1, 1), bias=False)
        (bn2): BatchNorm2d(512, eps=1e-05, momentum=0.1, affine=True, track_running_stats=True)
        (skeca): emcaa_layer(
          (avg_pool1): AdaptiveAvgPool2d(output_size=1)
          (avg_pool2): AdaptiveAvgPool2d(output_size=2)
          (conv): Conv1d(1, 1, kernel_size=(7,), stride=(1,), padding=(3,), bias=False)
          (fc): Sequential(
            (0): Linear(in_features=2560, out_features=512, bias=False)
            (1): Sigmoid()
          )
          (sigmoid): Sigmoid()
        )
        (conv3): Conv2d(512, 2048, kernel_size=(1, 1), stride=(1, 1), bias=False)
        (bn3): BatchNorm2d(2048, eps=1e-05, momentum=0.1, affine=True, track_running_stats=True)
        (relu): ReLU(inplace=True)
        (downsample): Sequential(
          (0): Conv2d(1024, 2048, kernel_size=(1, 1), stride=(2, 2), bias=False)
          (1): BatchNorm2d(2048, eps=1e-05, momentum=0.1, affine=True, track_running_stats=True)
        )
      )
      (1): EMCAABottleneck(
        (conv1): Conv2d(2048, 512, kernel_size=(1, 1), stride=(1, 1), bias=False)
        (bn1): BatchNorm2d(512, eps=1e-05, momentum=0.1, affine=True, track_running_stats=True)
        (conv2): Conv2d(512, 512, kernel_size=(3, 3), stride=(1, 1), padding=(1, 1), bias=False)
        (bn2): BatchNorm2d(512, eps=1e-05, momentum=0.1, affine=True, track_running_stats=True)
        (skeca): emcaa_layer(
          (avg_pool1): AdaptiveAvgPool2d(output_size=1)
          (avg_pool2): AdaptiveAvgPool2d(output_size=2)
          (conv): Conv1d(1, 1, kernel_size=(7,), stride=(1,), padding=(3,), bias=False)
          (fc): Sequential(
            (0): Linear(in_features=2560, out_features=512, bias=False)
            (1): Sigmoid()
          )
          (sigmoid): Sigmoid()
        )
        (conv3): Conv2d(512, 2048, kernel_size=(1, 1), stride=(1, 1), bias=False)
        (bn3): BatchNorm2d(2048, eps=1e-05, momentum=0.1, affine=True, track_running_stats=True)
        (relu): ReLU(inplace=True)
      )
      (2): EMCAABottleneck(
        (conv1): Conv2d(2048, 512, kernel_size=(1, 1), stride=(1, 1), bias=False)
        (bn1): BatchNorm2d(512, eps=1e-05, momentum=0.1, affine=True, track_running_stats=True)
        (conv2): Conv2d(512, 512, kernel_size=(3, 3), stride=(1, 1), padding=(1, 1), bias=False)
        (bn2): BatchNorm2d(512, eps=1e-05, momentum=0.1, affine=True, track_running_stats=True)
        (skeca): emcaa_layer(
          (avg_pool1): AdaptiveAvgPool2d(output_size=1)
          (avg_pool2): AdaptiveAvgPool2d(output_size=2)
          (conv): Conv1d(1, 1, kernel_size=(7,), stride=(1,), padding=(3,), bias=False)
          (fc): Sequential(
            (0): Linear(in_features=2560, out_features=512, bias=False)
            (1): Sigmoid()
          )
          (sigmoid): Sigmoid()
        )
        (conv3): Conv2d(512, 2048, kernel_size=(1, 1), stride=(1, 1), bias=False)
        (bn3): BatchNorm2d(2048, eps=1e-05, momentum=0.1, affine=True, track_running_stats=True)
        (relu): ReLU(inplace=True)
      )
    )
    (avgpool): AvgPool2d(kernel_size=7, stride=1, padding=0)
    (fc): Linear(in_features=2048, out_features=1000, bias=True)
  )
)
Number of models parameters: 31844476
Epoch: [0][0/495]	Time 17.647 (17.647)	Data 4.719 (4.719)	Loss 7.0230 (7.0230)	Prec@1 0.781 (0.781)	Prec@5 2.734 (2.734)
Epoch: [0][100/495]	Time 0.334 (0.479)	Data 0.000 (0.047)	Loss 4.6696 (5.6322)	Prec@1 1.562 (1.238)	Prec@5 8.203 (5.604)
Epoch: [0][200/495]	Time 0.306 (0.393)	Data 0.000 (0.024)	Loss 4.4951 (5.1023)	Prec@1 3.125 (1.724)	Prec@5 12.891 (7.513)
…
